#map = affine_map<(d0, d1, d2, d3) -> (d0, d1, d2, d3)>
module attributes {torch.debug_module_name = "Conv2dWithPaddingDilationStrideModule"} {
  func.func private @refbackend_consume_func_return_mrf32(memref<*xf32>) attributes {llvm.emit_c_interface}
  memref.global "private" @global_seed : memref<i64> = dense<0>
  memref.global "private" constant @__constant_10x2x3x3xf32 : memref<10x2x3x3xf32> = dense<"…">
  func.func @forward(%arg0: memref<*xf32>) attributes {llvm.emit_c_interface} {
    %c2_i64 = arith.constant 2 : i64
    %c1_i64 = arith.constant 1 : i64
    %cst = arith.constant 0.000000e+00 : f32
    %c3 = arith.constant 3 : index
    %c2 = arith.constant 2 : index
    %c1 = arith.constant 1 : index
    %c0 = arith.constant 0 : index
    %c6 = arith.constant 6 : index
    %cast = memref.cast %arg0 : memref<*xf32> to memref<?x?x?x?xf32>
    %0 = memref.get_global @__constant_10x2x3x3xf32 : memref<10x2x3x3xf32>
    %dim = memref.dim %cast, %c0 : memref<?x?x?x?xf32>
    %dim_0 = memref.dim %cast, %c2 : memref<?x?x?x?xf32>
    %dim_1 = memref.dim %cast, %c3 : memref<?x?x?x?xf32>
    %dim_2 = memref.dim %cast, %c1 : memref<?x?x?x?xf32>
    %1 = arith.addi %dim_0, %c6 : index
    %2 = arith.addi %dim_1, %c6 : index
    %alloc = memref.alloc(%dim, %dim_2, %1, %2) {alignment = 64 : i64} : memref<?x?x?x?xf32>
    linalg.fill ins(%cst : f32) outs(%alloc : memref<?x?x?x?xf32>)
    %alloc_3 = memref.alloc(%dim, %dim_2, %1, %2) {alignment = 64 : i64} : memref<?x?x?x?xf32>
    linalg.generic {indexing_maps = [#map, #map], iterator_types = ["parallel", "parallel", "parallel", "parallel"]} ins(%alloc : memref<?x?x?x?xf32>) outs(%alloc_3 : memref<?x?x?x?xf32>) {
    ^bb0(%in: f32, %out: f32):
      linalg.yield %in : f32
    }
    memref.dealloc %alloc : memref<?x?x?x?xf32>
    %subview = memref.subview %alloc_3[0, 0, 3, 3] [%dim, %dim_2, %dim_0, %dim_1] [1, 1, 1, 1] : memref<?x?x?x?xf32> to memref<?x?x?x?xf32, strided<[?, ?, ?, 1], offset: ?>>
    linalg.generic {indexing_maps = [#map, #map], iterator_types = ["parallel", "parallel", "parallel", "parallel"]} ins(%cast : memref<?x?x?x?xf32>) outs(%subview : memref<?x?x?x?xf32, strided<[?, ?, ?, 1], offset: ?>>) {
    ^bb0(%in: f32, %out: f32):
      linalg.yield %in : f32
    }
    %3 = arith.index_cast %dim_0 : index to i64
    %4 = arith.subi %3, %c1_i64 : i64
    %5 = arith.floordivsi %4, %c2_i64 : i64
    %6 = arith.addi %5, %c1_i64 : i64
    %7 = arith.index_cast %6 : i64 to index
    %8 = arith.index_cast %dim_1 : index to i64
    %9 = arith.subi %8, %c1_i64 : i64
    %10 = arith.floordivsi %9, %c2_i64 : i64
    %11 = arith.addi %10, %c1_i64 : i64
    %12 = arith.index_cast %11 : i64 to index
    %alloc_4 = memref.alloc(%dim, %7, %12) {alignment = 64 : i64} : memref<?x10x?x?xf32>
    linalg.fill ins(%cst : f32) outs(%alloc_4 : memref<?x10x?x?xf32>)
    %alloc_5 = memref.alloc(%dim, %7, %12) {alignment = 64 : i64} : memref<?x10x?x?xf32>
    linalg.generic {indexing_maps = [#map, #map], iterator_types = ["parallel", "parallel", "parallel", "parallel"]} ins(%alloc_4 : memref<?x10x?x?xf32>) outs(%alloc_5 : memref<?x10x?x?xf32>) {
    ^bb0(%in: f32, %out: f32):
      linalg.yield %in : f32
    }
    memref.dealloc %alloc_4 : memref<?x10x?x?xf32>
    linalg.conv_2d_nchw_fchw {dilations = dense<3> : vector<2xi64>, strides = dense<2> : vector<2xi64>} ins(%alloc_3, %0 : memref<?x?x?x?xf32>, memref<10x2x3x3xf32>) outs(%alloc_5 : memref<?x10x?x?xf32>)
    memref.dealloc %alloc_3 : memref<?x?x?x?xf32>
    %cast_6 = memref.cast %alloc_5 : memref<?x10x?x?xf32> to memref<*xf32>
    call @refbackend_consume_func_return_mrf32(%cast_6) : (memref<*xf32>) -> ()
    return
  }
}
