module attributes {torch.debug_module_name = "Conv2dWithPaddingDilationStrideModule"} {
  func.func private @refbackend_consume_func_return_mrf32(memref<*xf32>) attributes {llvm.emit_c_interface}
  memref.global "private" @global_seed : memref<i64> = dense<0>
  memref.global "private" constant @__constant_10x2x3x3xf32 : memref<10x2x3x3xf32> = dense<"…">
  func.func @forward(%arg0: memref<*xf32>) attributes {llvm.emit_c_interface} {
    %c0 = arith.constant 0 : index
    %c1 = arith.constant 1 : index
    %c2 = arith.constant 2 : index
    %c3 = arith.constant 3 : index
    %c10 = arith.constant 10 : index
    %c2_i64 = arith.constant 2 : i64
    %c1_i64 = arith.constant 1 : i64
    %cst = arith.constant 0.000000e+00 : f32
    %c6 = arith.constant 6 : index
    %cast = memref.cast %arg0 : memref<*xf32> to memref<?x?x?x?xf32>
    %0 = memref.get_global @__constant_10x2x3x3xf32 : memref<10x2x3x3xf32>
    %dim = memref.dim %cast, %c0 : memref<?x?x?x?xf32>
    %dim_0 = memref.dim %cast, %c2 : memref<?x?x?x?xf32>
    %dim_1 = memref.dim %cast, %c3 : memref<?x?x?x?xf32>
    %dim_2 = memref.dim %cast, %c1 : memref<?x?x?x?xf32>
    %1 = arith.addi %dim_0, %c6 : index
    %2 = arith.addi %dim_1, %c6 : index
    %alloc = memref.alloc(%dim, %dim_2, %1, %2) {alignment = 64 : i64} : memref<?x?x?x?xf32>
    scf.parallel (%arg1, %arg2, %arg3, %arg4) = (%c0, %c0, %c0, %c0) to (%dim, %dim_2, %1, %2) step (%c1, %c1, %c1, %c1) {
      memref.store %cst, %alloc[%arg1, %arg2, %arg3, %arg4] : memref<?x?x?x?xf32>
      scf.yield
    }
    %alloc_3 = memref.alloc(%dim, %dim_2, %1, %2) {alignment = 64 : i64} : memref<?x?x?x?xf32>
    scf.parallel (%arg1, %arg2, %arg3, %arg4) = (%c0, %c0, %c0, %c0) to (%dim, %dim_2, %1, %2) step (%c1, %c1, %c1, %c1) {
      %13 = memref.load %alloc[%arg1, %arg2, %arg3, %arg4] : memref<?x?x?x?xf32>
      memref.store %13, %alloc_3[%arg1, %arg2, %arg3, %arg4] : memref<?x?x?x?xf32>
      scf.yield
    }
    memref.dealloc %alloc : memref<?x?x?x?xf32>
    %subview = memref.subview %alloc_3[0, 0, 3, 3] [%dim, %dim_2, %dim_0, %dim_1] [1, 1, 1, 1] : memref<?x?x?x?xf32> to memref<?x?x?x?xf32, strided<[?, ?, ?, 1], offset: ?>>
    %dim_4 = memref.dim %cast, %c0 : memref<?x?x?x?xf32>
    %dim_5 = memref.dim %cast, %c1 : memref<?x?x?x?xf32>
    %dim_6 = memref.dim %cast, %c2 : memref<?x?x?x?xf32>
    %dim_7 = memref.dim %cast, %c3 : memref<?x?x?x?xf32>
    scf.parallel (%arg1, %arg2, %arg3, %arg4) = (%c0, %c0, %c0, %c0) to (%dim_4, %dim_5, %dim_6, %dim_7) step (%c1, %c1, %c1, %c1) {
      %13 = memref.load %cast[%arg1, %arg2, %arg3, %arg4] : memref<?x?x?x?xf32>
      memref.store %13, %subview[%arg1, %arg2, %arg3, %arg4] : memref<?x?x?x?xf32, strided<[?, ?, ?, 1], offset: ?>>
      scf.yield
    }
    %3 = arith.index_cast %dim_0 : index to i64
    %4 = arith.subi %3, %c1_i64 : i64
    %5 = arith.floordivsi %4, %c2_i64 : i64
    %6 = arith.addi %5, %c1_i64 : i64
    %7 = arith.index_cast %6 : i64 to index
    %8 = arith.index_cast %dim_1 : index to i64
    %9 = arith.subi %8, %c1_i64 : i64
    %10 = arith.floordivsi %9, %c2_i64 : i64
    %11 = arith.addi %10, %c1_i64 : i64
    %12 = arith.index_cast %11 : i64 to index
    %alloc_8 = memref.alloc(%dim, %7, %12) {alignment = 64 : i64} : memref<?x10x?x?xf32>
    scf.parallel (%arg1, %arg2, %arg3, %arg4) = (%c0, %c0, %c0, %c0) to (%dim, %c10, %7, %12) step (%c1, %c1, %c1, %c1) {
      memref.store %cst, %alloc_8[%arg1, %arg2, %arg3, %arg4] : memref<?x10x?x?xf32>
      scf.yield
    }
    %alloc_9 = memref.alloc(%dim, %7, %12) {alignment = 64 : i64} : memref<?x10x?x?xf32>
    scf.parallel (%arg1, %arg2, %arg3, %arg4) = (%c0, %c0, %c0, %c0) to (%dim, %c10, %7, %12) step (%c1, %c1, %c1, %c1) {
      %13 = memref.load %alloc_8[%arg1, %arg2, %arg3, %arg4] : memref<?x10x?x?xf32>
      memref.store %13, %alloc_9[%arg1, %arg2, %arg3, %arg4] : memref<?x10x?x?xf32>
      scf.yield
    }
    memref.dealloc %alloc_8 : memref<?x10x?x?xf32>
    scf.parallel (%arg1, %arg2, %arg3, %arg4) = (%c0, %c0, %c0, %c0) to (%dim, %c10, %7, %12) step (%c1, %c1, %c1, %c1) {
      scf.for %arg5 = %c0 to %dim_2 step %c1 {
        scf.for %arg6 = %c0 to %c3 step %c1 {
          scf.for %arg7 = %c0 to %c3 step %c1 {
            %c2_11 = arith.constant 2 : index
            %13 = arith.muli %arg3, %c2_11 : index
            %c3_12 = arith.constant 3 : index
            %14 = arith.muli %arg6, %c3_12 : index
            %15 = arith.addi %13, %14 : index
            %c2_13 = arith.constant 2 : index
            %16 = arith.muli %arg4, %c2_13 : index
            %c3_14 = arith.constant 3 : index
            %17 = arith.muli %arg7, %c3_14 : index
            %18 = arith.addi %16, %17 : index
            %19 = memref.load %alloc_3[%arg1, %arg5, %15, %18] : memref<?x?x?x?xf32>
            %20 = memref.load %0[%arg2, %arg5, %arg6, %arg7] : memref<10x2x3x3xf32>
            %21 = memref.load %alloc_9[%arg1, %arg2, %arg3, %arg4] : memref<?x10x?x?xf32>
            %22 = arith.mulf %19, %20 : f32
            %23 = arith.addf %21, %22 : f32
            memref.store %23, %alloc_9[%arg1, %arg2, %arg3, %arg4] : memref<?x10x?x?xf32>
          }
        }
      }
      scf.yield
    }
    memref.dealloc %alloc_3 : memref<?x?x?x?xf32>
    %cast_10 = memref.cast %alloc_9 : memref<?x10x?x?xf32> to memref<*xf32>
    call @refbackend_consume_func_return_mrf32(%cast_10) : (memref<*xf32>) -> ()
    return
  }
}
