module attributes {torch.debug_module_name = "Conv2dWithPaddingDilationStrideModule"} {
  func.func private @refbackend_consume_func_return_mrf32(memref<*xf32>) attributes {llvm.emit_c_interface}
  memref.global "private" @global_seed : memref<i64> = dense<0>
  memref.global "private" constant @__constant_10x2x3x3xf32 : memref<10x2x3x3xf32> = dense<"…">
  func.func @forward(%arg0: memref<*xf32>) attributes {llvm.emit_c_interface} {
    %c0 = arith.constant 0 : index
    %c1 = arith.constant 1 : index
    %c2 = arith.constant 2 : index
    %c3 = arith.constant 3 : index
    %c10 = arith.constant 10 : index
    %c2_i64 = arith.constant 2 : i64
    %c1_i64 = arith.constant 1 : i64
    %cst = arith.constant 0.000000e+00 : f32
    %c6 = arith.constant 6 : index
    %cast = memref.cast %arg0 : memref<*xf32> to memref<?x?x?x?xf32>
    %0 = memref.get_global @__constant_10x2x3x3xf32 : memref<10x2x3x3xf32>
    %dim = memref.dim %cast, %c0 : memref<?x?x?x?xf32>
    %dim_0 = memref.dim %cast, %c2 : memref<?x?x?x?xf32>
    %dim_1 = memref.dim %cast, %c3 : memref<?x?x?x?xf32>
    %dim_2 = memref.dim %cast, %c1 : memref<?x?x?x?xf32>
    %1 = arith.addi %dim_0, %c6 : index
    %2 = arith.addi %dim_1, %c6 : index
    %alloc = memref.alloc(%dim, %dim_2, %1, %2) {alignment = 64 : i64} : memref<?x?x?x?xf32>
    cf.br ^bb1(%c0 : index)
  ^bb1(%3: index):  // 2 preds: ^bb0, ^bb8
    %4 = arith.cmpi slt, %3, %dim : index
    cf.cond_br %4, ^bb2(%c0 : index), ^bb9
  ^bb2(%5: index):  // 2 preds: ^bb1, ^bb7
    %6 = arith.cmpi slt, %5, %dim_2 : index
    cf.cond_br %6, ^bb3(%c0 : index), ^bb8
  ^bb3(%7: index):  // 2 preds: ^bb2, ^bb6
    %8 = arith.cmpi slt, %7, %1 : index
    cf.cond_br %8, ^bb4(%c0 : index), ^bb7
  ^bb4(%9: index):  // 2 preds: ^bb3, ^bb5
    %10 = arith.cmpi slt, %9, %2 : index
    cf.cond_br %10, ^bb5, ^bb6
  ^bb5:  // pred: ^bb4
    memref.store %cst, %alloc[%3, %5, %7, %9] : memref<?x?x?x?xf32>
    %11 = arith.addi %9, %c1 : index
    cf.br ^bb4(%11 : index)
  ^bb6:  // pred: ^bb4
    %12 = arith.addi %7, %c1 : index
    cf.br ^bb3(%12 : index)
  ^bb7:  // pred: ^bb3
    %13 = arith.addi %5, %c1 : index
    cf.br ^bb2(%13 : index)
  ^bb8:  // pred: ^bb2
    %14 = arith.addi %3, %c1 : index
    cf.br ^bb1(%14 : index)
  ^bb9:  // pred: ^bb1
    %alloc_3 = memref.alloc(%dim, %dim_2, %1, %2) {alignment = 64 : i64} : memref<?x?x?x?xf32>
    cf.br ^bb10(%c0 : index)
  ^bb10(%15: index):  // 2 preds: ^bb9, ^bb17
    %16 = arith.cmpi slt, %15, %dim : index
    cf.cond_br %16, ^bb11(%c0 : index), ^bb18
  ^bb11(%17: index):  // 2 preds: ^bb10, ^bb16
    %18 = arith.cmpi slt, %17, %dim_2 : index
    cf.cond_br %18, ^bb12(%c0 : index), ^bb17
  ^bb12(%19: index):  // 2 preds: ^bb11, ^bb15
    %20 = arith.cmpi slt, %19, %1 : index
    cf.cond_br %20, ^bb13(%c0 : index), ^bb16
  ^bb13(%21: index):  // 2 preds: ^bb12, ^bb14
    %22 = arith.cmpi slt, %21, %2 : index
    cf.cond_br %22, ^bb14, ^bb15
  ^bb14:  // pred: ^bb13
    %23 = memref.load %alloc[%15, %17, %19, %21] : memref<?x?x?x?xf32>
    memref.store %23, %alloc_3[%15, %17, %19, %21] : memref<?x?x?x?xf32>
    %24 = arith.addi %21, %c1 : index
    cf.br ^bb13(%24 : index)
  ^bb15:  // pred: ^bb13
    %25 = arith.addi %19, %c1 : index
    cf.br ^bb12(%25 : index)
  ^bb16:  // pred: ^bb12
    %26 = arith.addi %17, %c1 : index
    cf.br ^bb11(%26 : index)
  ^bb17:  // pred: ^bb11
    %27 = arith.addi %15, %c1 : index
    cf.br ^bb10(%27 : index)
  ^bb18:  // pred: ^bb10
    memref.dealloc %alloc : memref<?x?x?x?xf32>
    %subview = memref.subview %alloc_3[0, 0, 3, 3] [%dim, %dim_2, %dim_0, %dim_1] [1, 1, 1, 1] : memref<?x?x?x?xf32> to memref<?x?x?x?xf32, strided<[?, ?, ?, 1], offset: ?>>
    %dim_4 = memref.dim %cast, %c0 : memref<?x?x?x?xf32>
    %dim_5 = memref.dim %cast, %c1 : memref<?x?x?x?xf32>
    %dim_6 = memref.dim %cast, %c2 : memref<?x?x?x?xf32>
    %dim_7 = memref.dim %cast, %c3 : memref<?x?x?x?xf32>
    cf.br ^bb19(%c0 : index)
  ^bb19(%28: index):  // 2 preds: ^bb18, ^bb26
    %29 = arith.cmpi slt, %28, %dim_4 : index
    cf.cond_br %29, ^bb20(%c0 : index), ^bb27
  ^bb20(%30: index):  // 2 preds: ^bb19, ^bb25
    %31 = arith.cmpi slt, %30, %dim_5 : index
    cf.cond_br %31, ^bb21(%c0 : index), ^bb26
  ^bb21(%32: index):  // 2 preds: ^bb20, ^bb24
    %33 = arith.cmpi slt, %32, %dim_6 : index
    cf.cond_br %33, ^bb22(%c0 : index), ^bb25
  ^bb22(%34: index):  // 2 preds: ^bb21, ^bb23
    %35 = arith.cmpi slt, %34, %dim_7 : index
    cf.cond_br %35, ^bb23, ^bb24
  ^bb23:  // pred: ^bb22
    %36 = memref.load %cast[%28, %30, %32, %34] : memref<?x?x?x?xf32>
    memref.store %36, %subview[%28, %30, %32, %34] : memref<?x?x?x?xf32, strided<[?, ?, ?, 1], offset: ?>>
    %37 = arith.addi %34, %c1 : index
    cf.br ^bb22(%37 : index)
  ^bb24:  // pred: ^bb22
    %38 = arith.addi %32, %c1 : index
    cf.br ^bb21(%38 : index)
  ^bb25:  // pred: ^bb21
    %39 = arith.addi %30, %c1 : index
    cf.br ^bb20(%39 : index)
  ^bb26:  // pred: ^bb20
    %40 = arith.addi %28, %c1 : index
    cf.br ^bb19(%40 : index)
  ^bb27:  // pred: ^bb19
    %41 = arith.index_cast %dim_0 : index to i64
    %42 = arith.subi %41, %c1_i64 : i64
    %c1_i64_8 = arith.constant 1 : i64
    %c0_i64 = arith.constant 0 : i64
    %c-1_i64 = arith.constant -1 : i64
    %43 = arith.cmpi slt, %c2_i64, %c0_i64 : i64
    %44 = arith.select %43, %c1_i64_8, %c-1_i64 : i64
    %45 = arith.subi %44, %42 : i64
    %46 = arith.divsi %45, %c2_i64 : i64
    %47 = arith.subi %c-1_i64, %46 : i64
    %48 = arith.divsi %42, %c2_i64 : i64
    %49 = arith.cmpi slt, %42, %c0_i64 : i64
    %50 = arith.cmpi sgt, %42, %c0_i64 : i64
    %51 = arith.cmpi slt, %c2_i64, %c0_i64 : i64
    %52 = arith.cmpi sgt, %c2_i64, %c0_i64 : i64
    %53 = arith.andi %49, %52 : i1
    %54 = arith.andi %50, %51 : i1
    %55 = arith.ori %53, %54 : i1
    %56 = arith.select %55, %47, %48 : i64
    %57 = arith.addi %56, %c1_i64 : i64
    %58 = arith.index_cast %57 : i64 to index
    %59 = arith.index_cast %dim_1 : index to i64
    %60 = arith.subi %59, %c1_i64 : i64
    %c1_i64_9 = arith.constant 1 : i64
    %c0_i64_10 = arith.constant 0 : i64
    %c-1_i64_11 = arith.constant -1 : i64
    %61 = arith.cmpi slt, %c2_i64, %c0_i64_10 : i64
    %62 = arith.select %61, %c1_i64_9, %c-1_i64_11 : i64
    %63 = arith.subi %62, %60 : i64
    %64 = arith.divsi %63, %c2_i64 : i64
    %65 = arith.subi %c-1_i64_11, %64 : i64
    %66 = arith.divsi %60, %c2_i64 : i64
    %67 = arith.cmpi slt, %60, %c0_i64_10 : i64
    %68 = arith.cmpi sgt, %60, %c0_i64_10 : i64
    %69 = arith.cmpi slt, %c2_i64, %c0_i64_10 : i64
    %70 = arith.cmpi sgt, %c2_i64, %c0_i64_10 : i64
    %71 = arith.andi %67, %70 : i1
    %72 = arith.andi %68, %69 : i1
    %73 = arith.ori %71, %72 : i1
    %74 = arith.select %73, %65, %66 : i64
    %75 = arith.addi %74, %c1_i64 : i64
    %76 = arith.index_cast %75 : i64 to index
    %alloc_12 = memref.alloc(%dim, %58, %76) {alignment = 64 : i64} : memref<?x10x?x?xf32>
    cf.br ^bb28(%c0 : index)
  ^bb28(%77: index):  // 2 preds: ^bb27, ^bb35
    %78 = arith.cmpi slt, %77, %dim : index
    cf.cond_br %78, ^bb29(%c0 : index), ^bb36
  ^bb29(%79: index):  // 2 preds: ^bb28, ^bb34
    %80 = arith.cmpi slt, %79, %c10 : index
    cf.cond_br %80, ^bb30(%c0 : index), ^bb35
  ^bb30(%81: index):  // 2 preds: ^bb29, ^bb33
    %82 = arith.cmpi slt, %81, %58 : index
    cf.cond_br %82, ^bb31(%c0 : index), ^bb34
  ^bb31(%83: index):  // 2 preds: ^bb30, ^bb32
    %84 = arith.cmpi slt, %83, %76 : index
    cf.cond_br %84, ^bb32, ^bb33
  ^bb32:  // pred: ^bb31
    memref.store %cst, %alloc_12[%77, %79, %81, %83] : memref<?x10x?x?xf32>
    %85 = arith.addi %83, %c1 : index
    cf.br ^bb31(%85 : index)
  ^bb33:  // pred: ^bb31
    %86 = arith.addi %81, %c1 : index
    cf.br ^bb30(%86 : index)
  ^bb34:  // pred: ^bb30
    %87 = arith.addi %79, %c1 : index
    cf.br ^bb29(%87 : index)
  ^bb35:  // pred: ^bb29
    %88 = arith.addi %77, %c1 : index
    cf.br ^bb28(%88 : index)
  ^bb36:  // pred: ^bb28
    %alloc_13 = memref.alloc(%dim, %58, %76) {alignment = 64 : i64} : memref<?x10x?x?xf32>
    cf.br ^bb37(%c0 : index)
  ^bb37(%89: index):  // 2 preds: ^bb36, ^bb44
    %90 = arith.cmpi slt, %89, %dim : index
    cf.cond_br %90, ^bb38(%c0 : index), ^bb45
  ^bb38(%91: index):  // 2 preds: ^bb37, ^bb43
    %92 = arith.cmpi slt, %91, %c10 : index
    cf.cond_br %92, ^bb39(%c0 : index), ^bb44
  ^bb39(%93: index):  // 2 preds: ^bb38, ^bb42
    %94 = arith.cmpi slt, %93, %58 : index
    cf.cond_br %94, ^bb40(%c0 : index), ^bb43
  ^bb40(%95: index):  // 2 preds: ^bb39, ^bb41
    %96 = arith.cmpi slt, %95, %76 : index
    cf.cond_br %96, ^bb41, ^bb42
  ^bb41:  // pred: ^bb40
    %97 = memref.load %alloc_12[%89, %91, %93, %95] : memref<?x10x?x?xf32>
    memref.store %97, %alloc_13[%89, %91, %93, %95] : memref<?x10x?x?xf32>
    %98 = arith.addi %95, %c1 : index
    cf.br ^bb40(%98 : index)
  ^bb42:  // pred: ^bb40
    %99 = arith.addi %93, %c1 : index
    cf.br ^bb39(%99 : index)
  ^bb43:  // pred: ^bb39
    %100 = arith.addi %91, %c1 : index
    cf.br ^bb38(%100 : index)
  ^bb44:  // pred: ^bb38
    %101 = arith.addi %89, %c1 : index
    cf.br ^bb37(%101 : index)
  ^bb45:  // pred: ^bb37
    memref.dealloc %alloc_12 : memref<?x10x?x?xf32>
    cf.br ^bb46(%c0 : index)
  ^bb46(%102: index):  // 2 preds: ^bb45, ^bb59
    %103 = arith.cmpi slt, %102, %dim : index
    cf.cond_br %103, ^bb47(%c0 : index), ^bb60
  ^bb47(%104: index):  // 2 preds: ^bb46, ^bb58
    %105 = arith.cmpi slt, %104, %c10 : index
    cf.cond_br %105, ^bb48(%c0 : index), ^bb59
  ^bb48(%106: index):  // 2 preds: ^bb47, ^bb57
    %107 = arith.cmpi slt, %106, %58 : index
    cf.cond_br %107, ^bb49(%c0 : index), ^bb58
  ^bb49(%108: index):  // 2 preds: ^bb48, ^bb56
    %109 = arith.cmpi slt, %108, %76 : index
    cf.cond_br %109, ^bb50(%c0 : index), ^bb57
  ^bb50(%110: index):  // 2 preds: ^bb49, ^bb55
    %111 = arith.cmpi slt, %110, %dim_2 : index
    cf.cond_br %111, ^bb51(%c0 : index), ^bb56
  ^bb51(%112: index):  // 2 preds: ^bb50, ^bb54
    %113 = arith.cmpi slt, %112, %c3 : index
    cf.cond_br %113, ^bb52(%c0 : index), ^bb55
  ^bb52(%114: index):  // 2 preds: ^bb51, ^bb53
    %115 = arith.cmpi slt, %114, %c3 : index
    cf.cond_br %115, ^bb53, ^bb54
  ^bb53:  // pred: ^bb52
    %116 = arith.muli %106, %c2 : index
    %117 = arith.muli %112, %c3 : index
    %118 = arith.addi %116, %117 : index
    %119 = arith.muli %108, %c2 : index
    %120 = arith.muli %114, %c3 : index
    %121 = arith.addi %119, %120 : index
    %122 = memref.load %alloc_3[%102, %110, %118, %121] : memref<?x?x?x?xf32>
    %123 = memref.load %0[%104, %110, %112, %114] : memref<10x2x3x3xf32>
    %124 = memref.load %alloc_13[%102, %104, %106, %108] : memref<?x10x?x?xf32>
    %125 = arith.mulf %122, %123 : f32
    %126 = arith.addf %124, %125 : f32
    memref.store %126, %alloc_13[%102, %104, %106, %108] : memref<?x10x?x?xf32>
    %127 = arith.addi %114, %c1 : index
    cf.br ^bb52(%127 : index)
  ^bb54:  // pred: ^bb52
    %128 = arith.addi %112, %c1 : index
    cf.br ^bb51(%128 : index)
  ^bb55:  // pred: ^bb51
    %129 = arith.addi %110, %c1 : index
    cf.br ^bb50(%129 : index)
  ^bb56:  // pred: ^bb50
    %130 = arith.addi %108, %c1 : index
    cf.br ^bb49(%130 : index)
  ^bb57:  // pred: ^bb49
    %131 = arith.addi %106, %c1 : index
    cf.br ^bb48(%131 : index)
  ^bb58:  // pred: ^bb48
    %132 = arith.addi %104, %c1 : index
    cf.br ^bb47(%132 : index)
  ^bb59:  // pred: ^bb47
    %133 = arith.addi %102, %c1 : index
    cf.br ^bb46(%133 : index)
  ^bb60:  // pred: ^bb46
    memref.dealloc %alloc_3 : memref<?x?x?x?xf32>
    %cast_14 = memref.cast %alloc_13 : memref<?x10x?x?xf32> to memref<*xf32>
    call @refbackend_consume_func_return_mrf32(%cast_14) : (memref<*xf32>) -> ()
    return
  }
}